Programming Assignments/Assignment_3_Linear_Regression_Android/Python/degree.tflite (tflite, 1296 bytes, 3 tensors)

sequential/dense/BiasAdd/ReadVariableOp/resource f4 [10]
0.0 0.0 0.0 0.0 -0.019896565 0.0 0.0 0.019357016
-0.01974336 0.0
00000000: 0000 0000 0000 0000 0000 0000 0000 0000
00000010: 1ffe a2bc 0000 0000 0000 0000 9b92 9e3c
00000020: d4bc a1bc 0000 0000

sequential/dense/MatMul f4 [10, 1]
-0.10203123 -0.30629247 -0.07152504 -0.09286344 0.15489994 -0.08173424 -0.48282015 0.30716074
0.4940281 -0.6041299
00000000: c0f5 d0bd 5ed2 9cbe b87b 92bd 302f bebd
00000010: 179e 1e3e 4864 a7bd 3434 f7be 2c44 9d3e
00000020: 40f1 fc3e 42a8 1abf

sequential/dense_1/MatMul f4 [1, 10]
-0.66975546 0.23085445 0.61362 0.4439451 -0.21759541 0.40363795 0.20316494 0.7628989
-0.3659924 0.69266504
00000000: 1875 2bbf 1c65 6c3e 3316 1d3f c64c e33e
00000010: 55d1 5ebe a2a9 ce3e 780a 503e 584d 433f
00000020: 5b63 bbbe 7f52 313f
