Programming Assignments/Assignment_3_Linear_Regression_Android/Python/fashion.tflite (tflite, 408544 bytes, 4 tensors)

sequential/dense/BiasAdd/ReadVariableOp/resource f4 [128]
0	0xbd09851b	-0.033574205
1	0xbc6b225e	-0.0143514555
2	0xbcc83d2b	-0.02444323
3	0xbd153aa1	-0.036432866
4	0xbd28be34	-0.041197017
5	0xbd30822a	-0.043092884
6	0xbafecff2	-0.0019440635
7	0x3c56fcb5	0.0131217735
8	0xbe87c2cb	-0.26515803
9	0xbd4cb4e5	-0.049977202
10	0xbd0f2f6a	-0.034957327
11	0xbd58e536	-0.052952968
12	0x3c9bce8a	0.019019384
13	0xbe2ae39c	-0.16688389
14	0xbd638e89	-0.055555854
15	0xbd0bd898	-0.034142107
16	0xbcef6549	-0.029223101
17	0xbd157727	-0.036490586
18	0xbe6a1e7d	-0.22863193
19	0x3cee8210	0.029114753
20	0xbc611a39	-0.013739162
21	0xbd2eb3d5	-0.04265197
22	0xbd089cb3	-0.033352565
23	0xbc88a1d8	-0.016678736
24	0xbd4e196a	-0.050317205
25	0xbc9e6c4b	-0.019338747
26	0x3bcf6670	0.00632935
27	0xbcf05775	-0.029338578
28	0x37c5d2c7	2.358238e-05
29	0xbd79b270	-0.060961187
30	0xbbd2a2af	-0.006428085
31	0xbd711026	-0.05885329
32	0x3b86ff3b	0.0041197813
33	0xbd7b9e2f	-0.061430153
34	0xbb977fd5	-0.004623393
35	0x3cc33dba	0.023833144
36	0x3ed9910b	0.42493472
37	0xbd4c3aa8	-0.049860626
38	0xbcec5556	-0.028849285
39	0xbcd679dd	-0.026181156
40	0xbca7fad0	-0.020505339
41	0xbcfde8a2	-0.030994717
42	0xbcd2ca18	-0.025731131
43	0xbd0073dd	-0.031360496
44	0xbd2869fa	-0.041116692
45	0xbd5f2ee5	-0.05448808
46	0xbc96810f	-0.018372087
47	0xbc361259	-0.011112773
48	0x3e9328cb	0.2874206
49	0xbd032de2	-0.03202618
50	0xbca8ec42	-0.020620469
51	0xbbd8a23a	-0.006611136
52	0xbca3c463	-0.019991105
53	0xbd129be7	-0.03579321
54	0xbccc28d0	-0.024921805
55	0xbc2b0c86	-0.010439998
56	0xbcb2222c	-0.02174481
57	0x3c20abeb	0.009806613
58	0xbce8d560	-0.028422058
59	0xbd087418	-0.03331384
60	0xbd08db91	-0.03341252
61	0x3d3fa8c3	0.046791803
62	0xbd58fcc4	-0.05297543
63	0xbca08099	-0.01959257
64	0xbc8194d9	-0.015818046
65	0xbcb66e75	-0.022269467
66	0x3b4b2bbd	0.0031001412
67	0xbd0bb627	-0.03410926
68	0xbd421e04	-0.047391906
69	0xbc533af9	-0.012892478
70	0xbd2977a1	-0.041373853
71	0xbc2d4912	-0.010576503
72	0xbad1f211	-0.0016017576
73	0xbd1216bc	-0.035666212
74	0xbc92c846	-0.017917763
75	0xbee88f65	-0.454219
76	0xbcdff922	-0.027340475
77	0xbd4c741a	-0.04991541
78	0xbc1f7c51	-0.009734229
79	0x3e4d3419	0.20039405
80	0x3cad7de3	0.021178192
81	0xbc75fd78	-0.015014045
82	0xbce2afc9	-0.027671712
83	0xbca0b4c2	-0.019617442
84	0xbceaf4de	-0.028681215
85	0xbc5d35dc	-0.013501611
86	0x3cc10d20	0.023565829
87	0xbd005cc3	-0.031338464
88	0xbbeb519f	-0.007181361
89	0xbd862c5e	-0.06551431
90	0xbd4fbdef	-0.050718244
91	0xbcc51de0	-0.024062097
92	0xbc9ce48e	-0.019151952
93	0xbc73ae75	-0.014873137
94	0xbc0320dc	-0.00800344
95	0xbd9ba87e	-0.07600497
96	0xbcaa4160	-0.020783126
97	0xbd30d2f1	-0.04316992
98	0x3af64ad4	0.0018790611
99	0xbd1bab83	-0.038005363
100	0xbcc861ca	-0.024460692
101	0xbebffa50	-0.3749566
102	0xbca38224	-0.019959517
103	0xbd0c1335	-0.034198005
104	0xbd142d22	-0.036175855
105	0xbd130210	-0.03589064
106	0xbcd2e399	-0.025743293
107	0x3e99f4ca	0.30069572
108	0xbd647b2f	-0.05578154
109	0x3f2690ff	0.65064996
110	0xbd1270e3	-0.03575219
111	0xbba81e0d	-0.0051305355
112	0xbb6f93d9	-0.003655663
113	0xbd26207f	-0.040558334
114	0xbca6d2bd	-0.02036416
115	0xbcd20a87	-0.025639785
116	0xbcdca3e2	-0.026933614
117	0x3c630ef3	0.013858545
118	0xbcf69288	-0.030099168
119	0xbd310621	-0.043218736
120	0x3f070b0b	0.52751225
121	0xbcd9d0ec	-0.02658888
122	0x3f135941	0.57558066
123	0xbd2a8978	-0.041635007
124	0xbcd96200	-0.026535988
125	0xbd26c50f	-0.040715273
126	0x3a9e8aab	0.001209577
127	0xbcc7429f	-0.02432376

sequential/dense_1/BiasAdd/ReadVariableOp/resource f4 [10]
0	0x3ed4ea17	0.41584846
1	0xbf958a18	-1.1682768
2	0x3cb89948	0.022534028
3	0xbd59b4d0	-0.05315095
4	0xbf391559	-0.722982
5	0x3cb0c3d4	0.021577753
6	0x3ff3fc34	1.9061341
7	0xbf379691	-0.7171412
8	0x3efe57e6	0.49676436
9	0xc0082f09	-2.1278708

sequential/dense/MatMul f4 [128, 784]
0	0x3c8de884	0.017322786
1	0x3b0a96c0	0.0021146983
2	0xba6d5b00	-0.00090543926
3	0xbd9564c4	-0.0729461
4	0x3d36e8f2	0.044655748
5	0xbd835afa	-0.06413837
6	0xbc2ced38	-0.010554604
7	0x3d186c81	0.037212852
8	0xbd69555a	-0.056966163
9	0xbdbf0c5f	-0.093285315
10	0x3d826674	0.06367198
11	0xbdd7b2c2	-0.10532142
12	0xbc2ea5a5	-0.01065961
13	0xbcb60e67	-0.022223664
14	0x3cf0acb6	0.02937923
15	0xbdbd75d3	-0.09250989
16	0xb985330a	-0.00025405764
17	0x3c9b1b92	0.018934045
18	0xbc910e71	-0.017707082
19	0x3cdcf3ed	0.026971782
20	0x3cd67c97	0.026182456
21	0x3d9a12af	0.07523095
22	0x3db504dd	0.08838818
23	0xbdc486bc	-0.09596011
24	0xbcb283b0	-0.02179131
25	0xbd2b32aa	-0.041796364
26	0x3d1b799c	0.037957773
27	0x3c6c20f8	0.014412157
28	0x3c5f9e50	0.0136485845
29	0x3c5b8dc0	0.013400495
30	0x3d3c9196	0.04603728
31	0x3d1c8602	0.038213737
32	0xbcdbe76a	-0.026843745
33	0xbd8b4191	-0.06799615
34	0x3d5c883f	0.053840872
35	0x3d397438	0.04527685
36	0xbd6e9114	-0.058243826
37	0xbd20c8bf	-0.039253946
38	0x3c86f3d6	0.016473692
39	0xbdbb9d8f	-0.09160911
40	0x3c3b1a43	0.0114198355
41	0x3c0fd915	0.008779784
42	0x3d29c6c7	0.041449334
43	0xbd812efe	-0.06307791
44	0x3d7b7d63	0.061398875
45	0x3cff63c6	0.031175505
46	0xbc8ae8a3	-0.016956633
47	0x3d8566f2	0.06513776
48	0x3dc5b3f9	0.09653468
49	0xbc228816	-0.009920141
50	0xbd1f8ef1	-0.03895468
51	0x3cc17913	0.023617303
52	0xbdc081a6	-0.093997285
53	0xbd038cfe	-0.032116883
54	0x3d71d36e	0.059039526
55	0x3d8fd17d	0.070223786
56	0x3bb51970	0.005526714
57	0x3aea2800	0.0017864704
58	0xbc88de34	-0.016707517
59	0xbd9a13cb	-0.075233065
60	0xbccd4c2c	-0.025060736
61	0xbd321c4e	-0.043484025
62	0xbc788587	-0.015168554
63	0x3c914583	0.017733341
64	0x3b1ac257	0.002361437
65	0xbbd6f1d9	-0.006559592
66	0xbd8b82d4	-0.06812063
67	0xbd9ca89d	-0.07649348
68	0xbe045f32	-0.12926939
69	0xbd89201e	-0.06695579
70	0xbdb4c0d8	-0.088258445
71	0x3c590caf	0.013247653
72	0xbd30acc2	-0.043133505
73	0x3b0b624b	0.0021268304
74	0x3da3a4c2	0.079904094
75	0xbd1321b2	-0.035920806
76	0xbd8b7cab	-0.06810888
77	0x3d97ecc6	0.07418208
78	0x3c89965e	0.016795333
79	0x3d9b1fcd	0.07574425
80	0x3cddc675	0.02707217
81	0x3cd43c45	0.025907645
82	0x3d1489be	0.036264174
83	0x3d5eafe8	0.054366976
84	0xbb854640	-0.0040672123
85	0xbd985778	-0.07438558
86	0xbd758241	-0.059938673
87	0xbd2cd032	-0.042190738
88	0xbd4475e9	-0.04796401
89	0x3d091dec	0.0334758
90	0xbd6a50fc	-0.05720614
91	0xbdddda32	-0.10832633
92	0x3c6999a9	0.014257827
93	0xbb8442a2	-0.0040362636
94	0xbdb70599	-0.089366145
95	0xbd1854d1	-0.037190262
96	0xbd5e82e3	-0.054324042
97	0x3c9ca9bd	0.019123906
98	0x3d2c6a78	0.042093724
99	0x3d5add49	0.05343369
100	0x39fdaf0f	0.0004838635
101	0xbaa256c8	-0.0012385482
102	0x3cde3b24	0.02712781
103	0x3d6626ca	0.056189336
104	0xbd729038	-0.05921957
105	0xbc3e79ec	-0.011625748
106	0x3db46b51	0.088095315
107	0xbd0dc7e6	-0.034614466
108	0xbcf2ea46	-0.029652726
109	0xbd2f2aae	-0.042765312
110	0x3cc57d9c	0.024107747
111	0xbb56a7a6	-0.0032753735
112	0xbc7c5680	-0.015401483
113	0xbc6af1c8	-0.014339872
114	0x3c1175c0	0.008878171
115	0xbd86c521	-0.06580568
116	0x3d8a9dca	0.06768377
117	0x3d4ed20f	0.050493296
118	0xbd950324	-0.0727599
119	0xbe02353a	-0.12715617
120	0xbdd1dc28	-0.102470696
121	0xbddb9286	-0.107213065
122	0xbd2726b0	-0.04080838
123	0xbd1caecd	-0.03825264
124	0xbc1143fb	-0.008866305
125	0xbd32037a	-0.043460347
126	0xbd047e15	-0.032346804
127	0xbd80901e	-0.06277488
128	0xbd2d33b9	-0.042285655
129	0xbd1fbffb	-0.039001446
130	0x3d984b1c	0.07436201
131	0x3d37fff8	0.044921845
132	0xbd5eb2fc	-0.05436991
133	0xbdb8a5a8	-0.090159714
134	0xbc86869a	-0.016421605
135	0xbc73d0d6	-0.014881333
136	0xbcc3ae92	-0.023886953
137	0xbb6b5798	-0.0035910364
138	0xbd9e8320	-0.07739854
139	0x3cdfae3f	0.027304767
140	0xbc95466c	-0.018222056
141	0x3c1f3de8	0.009719349
142	0xbd9259fd	-0.0714607
143	0x3d5a4656	0.053289734
144	0x3d27cc22	0.04096616
145	0xbd2d6a60	-0.042337775
146	0xbde1705d	-0.1100776
147	0xbc9c2808	-0.019062057
148	0x3bcd3b06	0.0062631397
149	0xbd79fa6e	-0.061029844
150	0xbd3976e6	-0.045279406
151	0xbd30b3c0	-0.043140173
152	0xbdd90983	-0.10597517
153	0xbd1b927a	-0.037981488
154	0xbdd08c1d	-0.101829745
155	0xbc89aa6b	-0.016804894
156	0x3d0af8be	0.033928625
157	0x3aca11bc	0.0015416662
158	0x3dd334e0	0.103128195
159	0xbdc47d22	-0.0959418
160	0x3d2f8b26	0.04285731
161	0x3cc63e0c	0.024199508
162	0x3d38d675	0.045126397
163	0x3d5995dd	0.053121436
164	0x3cc0bcbf	0.023527501
165	0xbd9f7cce	-0.077874765
166	0xbc1ce085	-0.009575014
167	0xb9b521fe	-0.00034548336
168	0xbd577118	-0.05259809
169	0x3d10cb02	0.035349853
170	0x3d6e71b2	0.058213897
171	0x3ca02868	0.019550517
172	0xbd70dc55	-0.058803875
173	0xbc02a3fa	-0.007973665
174	0xbd811a3f	-0.06303834
175	0xbdeefccd	-0.11669312
176	0xbd3fd9fd	-0.04683875
177	0x3c9bd59e	0.019022759
178	0xbd26cfad	-0.0407254
179	0xbd34e358	-0.044162124
180	0xbd75771f	-0.059928056
181	0xbd7260c7	-0.059174325
182	0x3cee72a5	0.029107401
183	0xbd2d3c90	-0.042294085
184	0xbb755bb8	-0.0037438702
185	0x3db0c471	0.08631218
186	0xbd5345dd	-0.0515803
187	0xbc276949	-0.010217973
188	0xbd094900	-0.033516884
189	0x3d4ec743	0.050483
190	0xbd4d7ea4	-0.050169602
191	0xbd767653	-0.060171437
192	0xbd3682b2	-0.044558235
193	0xbdb119e2	-0.08647515
194	0x3d3fc45e	0.04681813
195	0xbdc5a0d2	-0.09649815
196	0xbca56aee	-0.02019259
197	0x3c451410	0.012028709
198	0xbd9185db	-0.07105609
199	0x3c164e06	0.009173876
200	0xbc72a5d6	-0.014810046
201	0xbd6d4ae7	-0.05793276
202	0x3c35fa78	0.01110708
203	0xbbae7285	-0.0053237104
204	0xbdafba3c	-0.08580443
205	0xbdd9251e	-0.10602783
206	0xbd572410	-0.052524626
207	0xbdf54fa4	-0.11978081
208	0xbdfe15d6	-0.124065086
209	0xbd47c1b7	-0.048768725
210	0xbde2f456	-0.1108176
211	0xbd8fd309	-0.07022674
212	0x3d40349b	0.04692517
213	0x3dca0b5c	0.09865448
214	0x3ca8a982	0.02058864
215	0x3d0f4f00	0.03498745
216	0x3c0cce0b	0.008594046
217	0xbdac32b1	-0.08408106
218	0x3d1e1be7	0.03860083
219	0xbd544781	-0.051826004
220	0x3d5997ff	0.05312347
221	0xbd3bfcb9	-0.045895312
222	0x3d822c09	0.06356055
223	0x3d2b8faf	0.041885074
224	0x3c8eb5b8	0.017420635
225	0xbd321c96	-0.043484293
226	0x3da61277	0.08108991
227	0xbc60b755	-0.013715585
228	0x3d3b952a	0.04579655
229	0x3c1aa90e	0.00943972
230	0x3ca40784	0.020023115
231	0xbd081afb	-0.033228856
232	0xbdf71301	-0.120641716
233	0xb8982d40	-7.256353e-05
234	0xbc0eedc9	-0.008723685
235	0xbd380fe3	-0.044937026
236	0xbde3958b	-0.111125074
237	0xbc2d7439	-0.010586792
238	0xbd6cda97	-0.05782565
239	0xbbdd6376	-0.0067562414
240	0x3c29fd5d	0.010375348
241	0xbca27ec1	-0.019835832
242	0x3d415816	0.047203146
243	0xbd9ffb63	-0.0781162
244	0x3d1f2b7b	0.038859826
245	0xbaa03f3f	-0.001222588
246	0xbc9bcd9d	-0.019018942
247	0x3ba3173d	0.0049771355
248	0xbdc45eaa	-0.09588368
249	0x3d8a31b8	0.06747764
250	0x3c727353	0.014798003
251	0xbd831768	-0.06400949
252	0xbd68ea3f	-0.05686402
253	0x3c53d498	0.012929104
254	0x3d09f2c5	0.03367879
255	0x3d5e00ab	0.054199856

sequential/dense_1/MatMul f4 [10, 128]
0	0xbbdd477a	-0.0067529054
1	0xbe37f1fb	-0.17963402
2	0x3e2440c3	0.1604033
3	0xbe17292b	-0.14761798
4	0xbe110856	-0.14163336
5	0xbda33740	-0.079695225
6	0xbd945db0	-0.07244432
7	0x3e1dc75d	0.15408082
8	0x3cf695ac	0.030100666
9	0xbdba747c	-0.09104249
10	0xbde9e9a7	-0.11421519
11	0x3d8ee55a	0.06977339
12	0xbe27a1d9	-0.16370334
13	0x3c8df002	0.017326359
14	0x3e0740a0	0.13208246
15	0x3c400e15	0.011722107
16	0x3e166eb0	0.14690661
17	0xbdc59bee	-0.09648882
18	0x3db063c2	0.08612777
19	0xbde562e5	-0.11200503
20	0x3d16bc67	0.03680077
21	0x3d4f55e4	0.05061902
22	0xbdbf259d	-0.09333346
23	0xbe0c8455	-0.13722356
24	0xbdc55af0	-0.096364856
25	0xbda9f27e	-0.08298205
26	0xbe31dcfa	-0.17369452
27	0x3d8c2e10	0.06844723
28	0xbe3f86fc	-0.18703836
29	0xbe4f6108	-0.20251858
30	0xbe0122f6	-0.12610993
31	0xbe30a90a	-0.17251983
32	0xbde7b67c	-0.11314103
33	0x3dae8cbf	0.08522939
34	0x3e03b370	0.12861419
35	0xba10b8a9	-0.00055206806
36	0x3e076868	0.13223422
37	0xbd19a525	-0.03751101
38	0x3dbb756c	0.09153256
39	0x3e12eaf1	0.14347436
40	0xbe27cd1e	-0.1638684
41	0x3de312c0	0.11087561
42	0x3dc54966	0.0963314
43	0x3d32915e	0.043595664
44	0x3e22adaf	0.15886568
45	0xbcb5a212	-0.022172008
46	0x3de9ecb5	0.114221014
47	0xbd3c321d	-0.04594623
48	0xbdfb5a98	-0.12273139
49	0xbd42ca91	-0.047556464
50	0xbdfabe10	-0.12243283
51	0xbda12034	-0.078674704
52	0x3dd50d7e	0.10402964
53	0xbe3b5198	-0.18292844
54	0x3e354e9e	0.17705771
55	0x3e0fdd8d	0.14049359
56	0xbd4a2b71	-0.049357835
57	0xbdd577b6	-0.10423224
58	0x3e1dbfa7	0.15405141
59	0xbd74f036	-0.059799396
60	0xbdc58c65	-0.09645919
61	0xbdba878c	-0.09107885
62	0xbcf43c9d	-0.029814059
63	0xbd16c966	-0.036813162
64	0x3d2788c6	0.04090192
65	0xbe1d807e	-0.15381047
66	0xbe434e92	-0.19072941
67	0xbd8862a5	-0.0665944
68	0x3e0df203	0.13861851
69	0x3bf3b149	0.0074369055
70	0xbe0e0fc6	-0.13873205
71	0xbb58d8dd	-0.0033088245
72	0x3e18392b	0.14865558
73	0xbcf3214c	-0.029678963
74	0x3dda9cbf	0.10674428
75	0x3d9fe732	0.07807769
76	0x3e4f462e	0.20241615
77	0x3d2e5ac3	0.042567026
78	0x3d17dd11	0.03707606
79	0x3db87161	0.09006
80	0x3ca655e4	0.020304628
81	0xbe053e9f	-0.1301217
82	0xbdcc7053	-0.09982362
83	0x3e1be886	0.1522542
84	0x3d92a448	0.071602404
85	0x3ddb7663	0.1071594
86	0x3d2f91c6	0.04286363
87	0x3d819dd2	0.0632893
88	0x3e176c24	0.14787346
89	0xbdf7582c	-0.12077364
90	0xbe02fb39	-0.12791146
91	0xbe3bda38	-0.18344963
92	0xbc35eb53	-0.011103469
93	0xbdfd4989	-0.12367541
94	0x3e1e23d6	0.15443358
95	0xbca21bbb	-0.019788614
96	0xbddf258a	-0.10895832
97	0xbe414ca9	-0.188769
98	0xbe003ff0	-0.1252439
99	0xbd21413f	-0.039368864
100	0x3d096860	0.033546805
101	0x3d6ab31b	0.057299715
102	0x3e07a76f	0.13247465
103	0xbe33e14a	-0.1756641
104	0x3e1dbdf7	0.15404497
105	0x3d7cc196	0.061708055
106	0xbe03bae7	-0.12864266
107	0xbc5c0f64	-0.013431404
108	0xbd8eeadf	-0.06978392
109	0xbde715ce	-0.11283456
110	0xbda12620	-0.078686
111	0xbe0cc109	-0.13745512
112	0xbcf95290	-0.030434877
113	0xbdbdfdb0	-0.09276903
114	0xbd0d82e3	-0.03454865
115	0x3b9345e7	0.004494417
116	0x3c5421d3	0.012947517
117	0x3daf0ec3	0.085477374
118	0xbe1170dc	-0.14203209
119	0xbe14e900	-0.14542007
120	0xbe464171	-0.19360901
121	0xbe481afe	-0.19541547
122	0x3d8de441	0.069283016
123	0xbe115cd5	-0.14195569
124	0x3e3c7771	0.18404938
125	0x3e2c35a5	0.16817339
126	0xba26510b	-0.0006344474
127	0x3cd775c9	0.026301282
128	0xbd2727cf	-0.04080945
129	0xbcfd914d	-0.030953074
130	0xbdf8817b	-0.121340714
131	0xbe6b6b1e	-0.2299008
132	0xbcbdb084	-0.023155458
133	0xbe2d1c93	-0.16905431
134	0x3d44d94a	0.048058785
135	0xbd30ee41	-0.043195967
136	0x3d46b901	0.048516277
137	0xbdca1cb6	-0.098687574
138	0x3da53f8f	0.080687635
139	0x3e482aae	0.19547531
140	0x3e196fbd	0.14984031
141	0x3dc6bdec	0.097041935
142	0xbe42df82	-0.19030574
143	0x3c057bec	0.008147221
144	0x3db5b855	0.08873049
145	0xbcfda92b	-0.030964455
146	0x3cc5778a	0.024104852
147	0xbd81398b	-0.063098036
148	0x3d4911b4	0.04908915
149	0xbdc2d0a2	-0.0951245
150	0x3de5c0f5	0.11218444
151	0x3dd52565	0.10407523
152	0xbd212f78	-0.03935191
153	0xbc26ee66	-0.010188675
154	0xbccac581	-0.02475238
155	0xbe1b98b9	-0.15194978
156	0x3c352e6c	0.011058431
157	0x3dd41342	0.10355236
158	0xbda01fd6	-0.07818572
159	0xbacb7882	-0.0015523585
160	0xbc8b0eb3	-0.016974783
161	0xbdf2fad9	-0.11864252
162	0xbd237a55	-0.039911587
163	0xbe4348d9	-0.19070758
164	0x3df440fd	0.11926458
165	0xba88c1f2	-0.0010433777
166	0x3e2f203a	0.17102137
167	0x3e1d4bdc	0.1536097
168	0x3c589ef2	0.013221489
169	0xbe10dbdd	-0.14146371
170	0x3e1e1541	0.15437795
171	0x3c9c9f5e	0.019118961
172	0xbc40ca7d	-0.011767027
173	0xbd62fcd2	-0.05541689
174	0x3e084c4e	0.13310358
175	0xbe05e3f0	-0.13075233
176	0xbe52bba4	-0.20579392
177	0xbcfbf808	-0.030757919
178	0x3ca067be	0.019580718
179	0xbc88b375	-0.016687134
180	0x3dcc1f8d	0.09966955
181	0x3e3f72a5	0.18696077
182	0xbe225268	-0.15851748
183	0x3dc1e455	0.09467379
184	0x3d210411	0.03931052
185	0xbdb22f7c	-0.08700463
186	0x3e15721d	0.14594312
187	0x3df23637	0.11826747
188	0xbe3169f9	-0.17325582
189	0xbe4769a1	-0.19473888
190	0xbda79582	-0.08182813
191	0x3deca217	0.11554354
192	0xbe52f5ee	-0.20601627
193	0x3ca0a8a3	0.019611662
194	0x3d74d459	0.059772823
195	0xbc2171c6	-0.009853786
196	0x3e35486f	0.17703412
197	0x3d10d2b8	0.035357207
198	0x3de15368	0.110022366
199	0xbe57c408	-0.21070874
200	0xbd0d6c8a	-0.03452734
201	0x3d836cd9	0.064172454
202	0x3dc88acd	0.09792099
203	0x3d9764ab	0.07392248
204	0xbda4c509	-0.08045394
205	0x3d46b04e	0.04850798
206	0x3da124be	0.07868336
207	0x3d842bb5	0.06453649
208	0xbc97a594	-0.018511571
209	0x3d3bab25	0.045817513
210	0xbe269e00	-0.1627121
211	0x3d51285b	0.051063877
212	0xbd40ea1d	-0.047098268
213	0xbe0ffa25	-0.14060266
214	0x3d6995ad	0.057027508
215	0x3cefd853	0.029277956
216	0x3e05463b	0.13015072
217	0xbcf45221	-0.029824318
218	0x3c896a5c	0.016774349
219	0x3d54db01	0.05196667
220	0xbe042db4	-0.1290806
221	0x3e3d8cd3	0.18510751
222	0xbda164d2	-0.07880558
223	0x3df6d81e	0.1205294
224	0xbcb64e3b	-0.0222541
225	0xbe044f24	-0.12920815
226	0xbe003e46	-0.12523755
227	0x3da9b091	0.082856305
228	0x3e1320e6	0.14368019
229	0xbcb86411	-0.022508653
230	0xbdecb20b	-0.115573965
231	0x3d35cd23	0.044385087
232	0xbd4f09a4	-0.050546303
233	0xbd93f3cc	-0.07224235
234	0x3d9c463f	0.07630586
235	0xbdcfb1b8	-0.10141319
236	0xbdd92e13	-0.10604491
237	0xbd5be89b	-0.053688627
238	0xbd7de359	-0.061984394
239	0xbe01f5c4	-0.12691408
240	0x3ce68d46	0.028143536
241	0xbe2c7e0c	-0.16844958
242	0x3d9f5294	0.077794224
243	0xbe4fa7a9	-0.20278801
244	0xbe07f46e	-0.13276836
245	0xbdef9a4b	-0.11699351
246	0xbd770b8f	-0.060313758
247	0x3dbfd58f	0.09366905
248	0xbe7682b9	-0.24073304
249	0xbcc35be5	-0.02384753
250	0x3d95802c	0.072998375
251	0x3cb8cf5b	0.022559812
252	0xbcc0b38b	-0.023523113
253	0x3c453d63	0.0120385615
254	0xbd285968	-0.04110089
255	0x3e3084dc	0.17238182
