Programming Assignments/Assignment_3_Linear_Regression_Android/Python/playerstats.tflite (tflite, 1340 bytes, 3 tensors)

sequential_22/dense_44/BiasAdd/ReadVariableOp/resource f4 [10]
000000 00 00 00 00 ad 1d ff 3d 00 00 00 00 00 00 00 00
       0.0 0.12456832 0.0 0.0
000010 00 00 00 00 00 00 00 00 95 17 d4 bd 32 7b ff 3d
       0.0 0.0 -0.103560604 0.124746695
000020 00 00 00 00 00 00 00 00
       0.0 0.0

sequential_22/dense_44/MatMul f4 [10, 1]
000000 d9 1b a6 be 75 f1 75 3e 70 15 6a be 56 24 03 bf
       -0.3244312 0.2401789 -0.2285974 -0.5122732
000010 7f 27 e2 be 53 c9 12 bf e3 97 d2 3e b1 b9 56 3f
       -0.44170758 -0.57338446 0.41131505 0.8387709
000020 46 64 7b be b0 79 21 bd
       -0.2454997 -0.03942269

sequential_22/dense_45/MatMul f4 [1, 10]
000000 80 69 08 bc 61 fb 4b 3f 09 e3 0d 3f ca 63 ce be
       -0.008325934 0.7968045 0.55424553 -0.40310508
000010 63 8c 09 bf 16 68 8f 3e 29 49 1e bf e4 82 2a 3f
       -0.5372984 0.280091 -0.61830384 0.66605973
000020 2c 95 de be b1 89 97 be
       -0.43473184 -0.29597238
